app/src/main/ml/modelformat.tflite (tflite, 97344 bytes, 3 tensors)

sequential_1/conv2d_2/BiasAdd/ReadVariableOp f4 [64]
-0.005468242 -0.011958933 0.0809568 0.023705356 0.037214015 0.03903369 -0.0099199135 0.030612485
-0.0009624292 0.026666595 0.013126242 -0.007915064 0.045711704 0.05951356 0.031207303 -0.012359624
-0.011262312 -0.013759766 0.024998924 0.019317124 0.07163472 -0.0052687563 0.04579606 0.06864848
-0.010181059 -0.01707126 0.006579313 0.05977443 -0.0044340068 0.04296892 0.013929974 0.029465454
0.044586938 0.03080213 -0.014495863 0.034720033 -0.010160524 0.05329427 -0.010764665 0.02275538
0.060096756 0.042565987 0.071466915 0.03914307 -0.0032976435 0.026855098 0.006225918 0.0007382636
0.014188515 0.063459635 -0.005811656 0.021579437 -0.009310368 0.014130221 0.01832648 0.077583164
-0.014062509 -0.014606388 -0.013893797 0.025407748 0.03051461 0.029488219 0.04658109 -0.012595067
00000000: f02e b3bb 67ef 43bc aecc a53d bc31 c23c
00000010: b96d 183d cae1 1f3d 2287 22bc 09c7 fa3c
00000020: 884b 7cba e773 da3c 730f 573c 2fae 01bc
00000030: 323c 3b3d 7ec4 733d 75a6 ff3c 0580 4abc
00000040: 8f85 38bc a470 61bc 8bca cc3c f23e 9e3c
00000050: 39b5 923d 88a5 acbb a694 3b3d 9397 8c3d
00000060: 75ce 26bc 07d9 8bbc 4797 d73b 08d6 743d
00000070: 254b 91bb 2e00 303d 8c3a 643c 8961 f13c
00000080: cba0 363d c054 fc3c 0e80 6dbc 9836 0e3d
00000090: 5478 26bc 184b 5a3d 475e 30bc 7e69 ba3c
000000a0: 0428 763d ac59 2e3d 3f5d 923d 7c54 203d
000000b0: 471d 58bb 39ff db3c c902 cc3b 0888 413a
000000c0: f276 683c 20f7 813d b46f bebb 5cc7 b03c
000000d0: 848a 18bc 7182 673c 6a21 963c ece3 9e3d
000000e0: 7066 66bc a24f 6fbc cfa2 63bc e923 d03c
000000f0: c7f9 f93c 4791 f13c d0cb 3e3d 8a5b 4ebc

sequential_1/conv2d_2/Conv2D f4 [64, 3, 3, 1]
-0.030469626 -0.044781286 0.049759988 0.049607836 0.0692744 0.04515628 0.08037331 -0.027721787
0.0029286216 -0.048908435 0.043696303 -0.04056292 0.040245466 0.03534485 0.04243981 -0.007452738
-0.067681715 0.015515298 0.05932979 0.09158659 -0.080999784 -0.028474608 0.0013580619 -0.11716115
0.027852204 0.0045679673 -0.037647694 -0.10335125 0.012283079 0.05793039 0.037400912 0.064116135
-0.07808177 -0.024640447 -0.074535504 0.08178492 -0.10892502 -0.07940489 0.074641794 -0.1017825
-0.10291641 0.07000482 0.087186955 0.015091306 0.1092631 0.0595886 0.07569965 0.018875133
0.07322847 -0.07239939 -0.07205349 -0.04083602 0.017593872 -0.10020646 0.021840025 0.09763298
-0.04420395 0.09322849 -0.024354534 -0.021895736 0.038126223 -0.07305751 0.08269392 -0.0060713207
0.0085068075 -0.032411862 -0.105186515 -0.06010084 0.09934534 -0.10372475 0.07266274 0.118847586
0.083841294 -0.06912037 0.07736414 -0.09504447 -0.03829418 0.057143513 0.08829697 -0.050195545
-0.05505444 0.08594932 -0.034957405 0.06682513 0.07026046 -0.009921683 -0.11662062 0.06488771
-0.101902805 -0.053660102 -0.07632522 0.07597565 -0.013241735 -0.08332882 0.07119094 0.015238824
-0.02699382 -0.04809609 0.07147081 -0.02690955 0.03755064 -0.06889846 0.075547114 0.0070770606
0.011082537 0.011352596 0.04913385 0.0011508975 -0.062367413 0.014586695 -0.10605395 -0.0032016311
-0.01855472 -0.10084965 0.13123916 0.030004835 0.07506426 -0.039544944 -0.07478632 -0.027638758
0.12221728 -0.07403923 -0.026849046 0.018212702 0.105836846 -0.06125161 0.06632467 -0.07612051
-0.10033556 0.12516838 0.024744527 -0.08775364 -0.010030295 0.08678884 -0.06304738 -0.010240149
-0.051953327 0.09430953 0.024267966 0.036358356 0.018459514 0.08170733 -0.06839008 0.053992692
-0.016716588 -0.119553044 0.06499588 -0.057622626 0.0399351 0.07907882 -0.020934073 -0.008226606
0.069575846 0.05731556 -0.077034906 -0.01765444 0.08355905 -0.043481916 0.081126325 0.059758864
-0.052253027 0.010884246 -0.037129987 -0.10226091 0.011241449 -0.084030375 0.0932342 -0.06459065
0.0328666 0.026574481 0.10472459 -0.05561855 -0.11424323 -0.069764495 -0.046452537 -0.0022896852
0.09464808 -0.05231053 0.11220768 0.113261946 -0.03765688 -0.08119617 -0.064194635 0.12337975
-0.06485541 -0.10332481 0.069765314 0.13744281 -0.053689975 0.056759916 -0.048434597 -0.016316883
0.026032165 0.023035001 0.09546602 -0.029579837 0.03384159 0.048409387 -0.01330735 0.01750481
-0.10781395 -0.04862225 0.08016254 -0.090877056 -0.031056771 0.061710153 0.08663468 -0.002063499
-0.09909919 -0.019171577 -0.10514405 0.037976198 0.141758 -0.13220319 0.032630365 0.077010915
-0.051046472 0.052194316 0.041399427 0.055587064 0.06656392 0.03065294 -0.031879798 -0.04877733
0.088762864 -0.087239504 0.054084565 0.008008652 0.019547548 0.012197328 0.009668035 0.052730437
0.030732054 -0.07823965 0.08714487 0.101420894 -0.040414836 0.08146197 -0.014675605 0.02087146
-0.09235063 -0.0512297 -0.1002154 0.0726753 -0.09154043 0.038096767 0.1337512 -0.06386582
0.04229395 -0.075523905 -0.11522194 -0.0036338235 0.030650394 -0.008268237 -0.08448797 -0.04239505
00000000: 709b f9bc 956c 37bd 21d1 4b3d 9631 4b3d
00000010: bddf 8d3d cbf5 383d c39a a43d cd18 e3bc
00000020: 1eee 3f3b 3654 48bd e5fa 323d 4e25 26bd
00000030: 6ed8 243d c3c5 103d 5ed5 2d3d 1936 f4bb
00000040: b69c 8abd e033 7e3c cb03 733d c091 bb3d
00000050: 37e3 a5bd 9543 e9bc ff00 b23a 2ff2 efbd
00000060: 4e2a e43c e3ae 953b 7834 1abd d2a9 d3bd
00000070: f83e 493c 6b48 6d3d b331 193d 524f 833d
00000080: 56e9 9fbd c3da c9bc 12a6 98bd da7e a73d
00000090: 1514 dfbd 089f a2bd ccdd 983d 5873 d0bd
000000a0: d7c5 d2bd b05e 8f3d 138f b23d 8641 773c
000000b0: 55c5 df3d 2d13 743d 6b08 9b3d 06a0 9a3c
000000c0: cff8 953d 2246 94bd c890 93bd ac43 27bd
000000d0: 0621 903c 0b39 cdbd dae9 b23c cdf3 c73d
000000e0: 330f 35bd 94ee be3d 2983 c7bc b05e b3bc
000000f0: 3e2a 1c3d 2d9f 95bd 6e5b a93d eef1 c6bb
00000100: 2360 0b3c 4dc2 04bd 076c d7bd 4c2c 76bd
00000110: 9275 cb3d a46d d4bd 34d0 943d 5d66 f33d
00000120: fcb4 ab3d fb8e 8dbd 1771 9e3d ada6 c2bd
00000130: 5cda 1cbd 510f 6a3d 0bd5 b43d d899 4dbd
00000140: c480 61bd 3206 b03d 7f2f 0fbd 9ddb 883d
00000150: b7e4 8f3d 8e8e 22bc cbd6 eebd d9e3 843d
00000160: 6bb2 d0bd b2ca 5bbd 6650 9cbd 1f99 9b3d
00000170: ddf3 58bc 4da8 aabd 8ecc 913d 43ac 793c
00000180: 2522 ddbc 6800 45bd 4a5f 923d 6b71 dcbc
00000190: b3ce 193d a31a 8dbd 72b8 9a3d b0e6 e73b
000001a0: 8793 353c 3d00 3a3c 9340 493d b6d9 963a
000001b0: f974 7fbd 08fd 6e3c d032 d9bd 75d2 51bb
000001c0: 1100 98bc 438a cebd 8f63 063e b3cc f53c
000001d0: 4abb 993d e1f9 21bd 9229 99bd ad6a e2bc
000001e0: 0e4d fa3d e1a1 97bd 88f2 dbbc ce32 953c
000001f0: fdc0 d83d f8e2 7abd 3bd5 873d 12e5 9bbd
00000200: bb7c cdbd 242c 003e 09b5 ca3c 2eb8 b3bd
00000210: 1b56 24bc 59be b13d fc1e 81bd 4cc6 27bc
00000220: 03cd 54bd 5b25 c13d 9dcd c63c 80ec 143d
00000230: 6838 973c 2c56 a73d 1910 8cbd 7127 5d3d
00000240: 3af1 88bc 3ad8 f4bd 8f1c 853d b405 6cbd
00000250: fd92 233d 14f4 a13d ef7d abbc e3c8 06bc
00000260: c87d 8e3d b8c3 6a3d 7ac4 9dbd 0ba0 90bc
00000270: 0221 ab3d 181a 32bd 8f25 a63d b6c5 743d
00000280: 4507 56bd d653 323c 9d15 18bd 2b6e d1bd
00000290: 0e2e 383c 1e18 acbd 92f1 be3d 1a48 84bd
000002a0: 219f 063d bab2 d93c d979 d63d 47d0 63bd
000002b0: 5bf8 e9bd b0e0 8ebd 0445 3ebd 8b0e 16bb
000002c0: dad6 c13d 9143 56bd 24cd e53d e1f5 e73d
000002d0: 1a3e 1abd 2d4a a6bd 7a78 83bd 86ae fc3d
000002e0: ead2 84bd f59b d3bd 1ee1 8e3d cfbd 0c3e
000002f0: 05ea 5bbd 167d 683d 5b63 46bd fcaa 85bc
00000300: 6841 d53c e6b3 bc3c b083 c33d 6a51 f2bc
00000310: 7b9d 0a3d ec48 463d 1207 5abc 3f66 8f3c
00000320: 8fcd dcbd 2028 47bd 422c a43d c01d babd
00000330: c56a febc c9c3 7c3d 866d b13d c53b 07bb
00000340: 84f4 cabd b60d 9dbc c455 d7bd ee8c 1b3d
00000350: 0229 113e 4660 07be 6ba7 053d e6b7 9d3d
00000360: 1b16 51bd b5c9 553d 7292 293d 43af 633d
00000370: aa52 883d e01b fb3c 6494 02bd bdca 47bd
00000380: 4ec9 b53d a0aa b2bd c787 5d3d b936 033c
00000390: 2e22 a03c 4dd7 473c ae66 1e3c dffb 573d
000003a0: cac1 fb3c 1c3c a0bd 0279 b23d c2b5 cf3d
000003b0: 078a 25bd 89d5 a63d f371 70bc a0fa aa3c
000003c0: 5422 bdbd 3cd6 51bd bb3d cdbd cad6 943d
000003d0: 8d79 bbbd 5b0b 1c3d 13f6 083e 15cc 82bd
000003e0: 6c3c 2d3d 47ac 9abd 7bf9 ebbd 7125 6ebb
000003f0: 8916 fb3c 8077 07bc 0708 adbd 6fa6 2dbd

sequential_1/dense_2/MatMul f4 [1, 23104]
-0.0024258418 -0.001958873 0.002182085 0.0050001303 0.008007481 0.011367665 0.006792642 0.009450747
-0.012359356 0.022058368 0.011765287 0.01161386 0.0023943153 0.0081691155 0.0034081044 0.008779823
-0.0055637606 0.016182803 -0.009924446 0.006367557 -0.0028244143 0.012268804 -0.002875389 0.026983367
0.013449645 0.002787691 0.014468758 0.014707385 -0.0004880809 0.008504317 0.0077134026 0.024502411
-0.0056995796 0.026275203 -0.0031841032 0.01752356 0.0019029932 0.029034548 -0.0099573685 0.0031893766
0.018050846 0.017678736 0.027108464 -0.00017724802 0.017320396 0.0144159105 -0.0146101825 -0.011923549
-0.0024396582 -0.0016515234 0.014838627 -0.005870892 0.0035349526 0.006147861 0.0013371891 0.03629863
0.016481051 -0.013135986 -0.0015283223 -0.0044306787 0.01963973 0.009956128 0.011899697 0.012670479
-0.009189308 0.015907146 0.018282933 0.01568708 0.03154159 0.012988909 0.014170737 0.005189883
-0.008425027 0.01303916 0.014063161 0.016291274 0.008956058 -0.0031510056 -0.020689648 -0.012118229
0.0029027946 -4.210975e-06 0.012366195 0.018917205 -0.00035568632 -0.0044490756 0.012228153 0.01699887
0.0013655396 0.008060786 -0.0030312692 -0.0034429904 -0.014760956 0.015519922 -0.011966967 0.016824985
0.015999036 0.01667263 0.010861126 8.3200895e-05 0.007079445 0.030587621 0.0048591006 -0.009678924
-0.0008238656 0.0197123 -0.001238063 0.0025076135 0.009690445 0.010996368 0.008857662 -0.0040277815
-0.010195636 -0.006219463 0.011370782 -0.009922598 -0.0030492092 -0.0051070075 0.011533941 0.03370965
0.011693724 0.0017011617 0.00795761 -0.004769978 0.013807527 -0.004044755 0.015759615 0.015958477
0.007144292 0.00037792337 0.022450903 0.020927828 0.012688529 0.0341345 0.010125387 0.011218517
0.009961899 0.023246285 0.016738445 -0.0133412555 0.010853047 0.00901368 -0.0015388512 -0.013017152
-0.004191553 0.013770298 -0.007815275 0.019498926 -0.0008001936 -0.0014801944 0.024019053 0.029686473
-0.0064239274 0.0012150569 -0.009616217 0.01210567 -0.0017405478 0.0044485074 0.00055124226 -0.0041041467
0.012096756 0.007349187 -0.0059107547 -0.0015141973 0.001113019 0.030380635 -0.010516425 -0.002875251
0.009335463 -0.0019059235 0.004191043 0.023065131 -0.009860504 -0.008696182 0.011338574 -0.009819988
-0.010460905 0.0050339713 -0.0074232672 -0.012969434 -0.0013851273 -0.009367859 0.0159867 0.031447273
-0.005778999 0.016633416 -0.0065387604 0.023146909 0.027529752 0.004817914 0.006456872 -0.012445632
-0.0040133027 -0.00577497 0.006113871 0.019113779 0.030346405 0.008639912 0.0013129878 -0.015849037
0.015188162 0.016948445 -0.0067679635 0.014748391 0.009861453 0.005377289 -0.010545955 0.018278725
-0.0034434195 0.0032075676 0.0045480295 0.013499003 0.007866278 0.0096021965 -0.003944514 0.024044687
-0.00774998 -0.007482474 0.011111491 -0.009466279 0.013441168 0.023502195 0.008531205 0.003923602
0.018260613 0.0073507624 0.0051254444 0.006692781 -0.0031275388 0.018288482 -0.009020534 0.012583565
0.010832989 -0.010159765 0.009236961 0.011030158 -0.012159842 0.013166502 -0.0071259565 0.0061335554
0.00414448 -0.0041397903 0.012425278 -0.0013754219 -0.013719199 -0.015139132 0.0032757302 0.033244744
-0.013426725 0.0022205666 -0.011418904 0.0011660876 0.027743988 0.0059583327 0.022949396 -0.00045773917
00000000: dffa 1ebb 6f60 00bb 5001 0f3b 22d8 a33b
00000010: cf31 033c 713f 3a3c d094 de3b 4ed7 1a3c
00000020: e57e 4abc c0b3 b43c 31c3 403c 0f48 3e3c
00000030: f2e9 1c3b c1d7 053c 815a 5f3b 3fd9 0f3c
00000040: 3550 b6bb cc91 843c 259a 22bc f1a6 d03b
00000050: cf19 39bb 1803 493c 0671 3cbb 390c dd3c
00000060: e65b 5c3c b2b1 363b 5f0e 6d3c 3ef7 703c
00000070: 1ce5 ffb9 b155 0b3c b6c0 fc3b 48b9 c83c
00000080: 8ac3 babb 183f d73c 63ac 50bb 928d 8f3c
00000090: db6d f93a dcd9 ed3c 3b24 23bc dc04 513b
000000a0: 5edf 933c ffd2 903c 9212 de3c a7db 39b9
000000b0: 81e3 8d3c b630 6c3c 8c5f 6fbc fd5a 43bc
000000c0: ace2 1fbb ee77 d8ba b61d 733c 9d60 c0bb
000000d0: aaaa 673b ff73 c93b 9f44 af3a dfad 143d
000000e0: 4503 873c 5238 57bc fd51 c8ba 3a2f 91bb
000000f0: 80e3 a03c 071f 233c f2f6 423c d797 4f3c
00000100: c08e 16bc b44f 823c 17c6 953c 3182 803c
00000110: c131 013d 6fcf 543c 612c 683c e50f aa3b
00000120: 2009 0abc 33a2 553c 2c69 663c 4775 853c
00000130: 6ebc 123c 1a81 4ebb 567d a9bc 898b 46bc
00000140: d03c 3e3b 004c 8db6 959b 4a3c 41f8 9a3c
00000150: 697b bab9 8dc9 91bb 9758 483c 3741 8b3c
00000160: e8fb b23a 6311 043c 42a8 46bb cba3 61bb
00000170: f0d7 71bc 4547 7e3c 1911 44bc 8dd4 893c
00000180: 6910 833c 0a95 883c ddf2 313c 247c ae38
00000190: b0fa e73b e492 fa3c 1739 9f3b 5a94 1ebc
000001a0: aff8 57ba b07b a13c 8046 a2ba c656 243b
000001b0: acc4 1e3c 1c2a 343c ba1f 113c 7bfb 83bb
000001c0: 990b 27bc a3cc cbbb 844c 3a3c 6492 22bc
000001d0: 3ed5 47bb af58 a7bb dbf8 3c3c 2113 0a3d
000001e0: 0997 3f3c 84f9 de3a a360 023c 7a4d 9cbb
000001f0: f738 623c dd89 84bb 4f1a 813c 5abb 823c
00000200: aa1a ea3b 0424 c639 f5ea b73c d670 ab3c
00000210: 8ce3 4f3c 9ed0 0b3d f4e4 253c dfcd 373c
00000220: 3c37 233c fe6e be3c 101f 893c 4895 5abc
00000230: fad0 313c 1dae 133c 47b3 c9ba e545 55bc
00000240: 4c59 89bb d19c 613c a40b 00bc 36bc 9f3c
00000250: 15c4 51ba 1503 c2ba 9bc3 c43c 0c31 f33c
00000260: cf7f d2bb 8b42 9f3a 568d 1dbc dc56 463c
00000270: 1823 e4ba c9c4 913b 3e81 103a 147c 86bb
00000280: 7931 463c 73d1 f03b 01af c1bb 0878 c6ba
00000290: b8e2 913a cfe0 f83c 154d 2cbc b56e 3cbb
000002a0: c5f3 183c 2ed0 f9ba 0455 893b 16f3 bc3c
000002b0: f48d 21bc 6e7a 0ebc 6dc5 393c 04e4 20bc
000002c0: 3764 2bbc 03f4 a43b e13e f3bb c07d 54bc
000002d0: 298d b5ba a67b 19bc 8af6 823c dbce 003d
000002e0: c25d bdbb cd42 883c 1943 d6bb 969e bd3c
000002f0: 1386 e13c 98df 9d3b 2b94 d33b c4e8 4bbc
00000300: 0682 83bb f63b bdbb de56 c83b 8094 9c3c
00000310: 0699 f83c 6b8e 0d3c 8f18 ac3a d7d5 81bc
00000320: c5d7 783c 77d7 8a3c cbc5 ddbb 3ca3 713c
00000330: ef91 213c f833 b03b f1c8 2cbc 44bd 953c
00000340: feaa 61bb 0e36 523b a307 953b ec2a 5d3c
00000350: 90e1 003c 8852 1d3c fb40 81bb 5df9 c43c
00000360: 8bf3 fdbb 8b2f f5bb f90c 363c 7418 1bbc
00000370: 5838 5c3c ad87 c03c 78c6 0b3c 8f91 803b
00000380: 4897 953c aade f03b 58f3 a73b 1e4f db3b
00000390: 65f7 4cbb bad1 953c ddca 13bc 4c2b 4e3c
000003a0: d97c 313c 2575 26bc 9f56 173c d6b7 343c
000003b0: 133a 47bc 50b8 573c db80 e9bb fefb c83b
000003c0: 6bce 873b 14a7 87bb 6593 4b3c 8047 b4ba
000003d0: 7ec6 60bc 1f0a 78bc a2ad 563b a42b 083d
000003e0: c4fb 5bbc ed86 113b 5b16 3bbc 68d7 983a
000003f0: 5c47 e33c 1e3e c33b 5f00 bc3c b6fc efb9
